PPO/PPO_preTrained/CartPole-v1/PPO_CartPole-v1_0_0.pth (torch, 41330 bytes, 11 tensors)

actor.0.weight f4 [64, 4]
0.23934647 0.09011948 -0.4404115 0.2718668 -0.35515508 0.36126906 0.31169423 -0.24077365
-0.29362953 -0.118430935 -0.14024745 0.045999557 0.010898799 -0.006407142 0.37245256 -0.05380837
-0.36726418 -0.278952 -0.6771268 -0.3340663 0.33415765 -0.019773597 0.6879863 0.075599045
-0.025819575 0.46422842 0.5894798 0.23617254 0.4424032 -0.12962914 0.37481853 0.4121237
-0.286069 -0.15827431 0.22012147 -0.25428003 -0.46794644 -0.2018547 0.54497534 0.013579713
-0.37925163 0.016264874 -0.24476276 0.44868395 -0.07985929 0.031355776 -0.514337 0.04536869
-0.12091775 0.14013223 0.38277128 0.46754047 0.20584041 -0.2525034 -0.46420416 0.066557415
-0.03957817 -0.25481266 -0.085530676 0.2776687 0.3719882 0.055839185 -0.2194985 0.010727196
-0.07453002 -0.22585335 -0.7187266 -0.43711218 -0.099103704 -0.3408434 0.34046468 0.39980355
0.13861026 -0.3843495 -0.55886215 -0.4356471 0.44021544 0.30502602 -0.010762367 -0.4668469
-0.30920663 -0.09518502 0.33193246 -0.06266692 0.30222735 0.27280474 -0.20966937 -0.25444964
-0.2730132 0.05267781 0.6203611 0.041951403 0.18259433 -0.33255515 -0.099243574 -0.19938047
0.21266843 -0.39087343 0.080824666 0.012775838 0.20354739 -0.33117536 0.31556478 -0.08143678
-0.103947096 -0.20389844 -0.12760442 0.43342736 -0.1260888 -0.033412732 0.026344512 0.26970702
-0.4479404 -0.3909064 0.6505569 0.25276268 0.08365604 -0.049772352 0.32265487 0.27429852
0.19975378 -0.034492403 -0.5682897 -0.02125763 -0.42049554 -0.4311455 -0.0041708583 0.12766281
-0.19604832 -0.05638687 0.28561673 0.020978384 -0.485737 0.16218303 -0.024310399 0.1731929
-0.009101328 0.5006006 0.73189646 0.44802907 -0.09938194 0.25374997 -0.76916754 -0.24335597
-0.037854545 0.397224 -0.06951354 0.11133366 -0.3887395 -0.37952554 -0.70971704 0.068008184
-0.19446273 -0.33690706 0.08915402 -0.45656553 -0.2408665 -0.38547176 -0.4268031 -0.07208599
-0.36050388 0.2878773 -0.4428405 -0.41999546 -0.10427478 0.26265448 -0.11030793 -0.4020238
-0.41272905 0.24175352 0.533174 -0.28846222 -0.40640897 0.3680614 0.6908888 0.23846103
0.24700636 0.38977975 -0.19620076 -0.38915172 -0.44059458 0.25311396 -0.5510757 -0.3522149
-0.04905242 -0.07465005 0.48425803 0.049213182 -0.21357983 0.40521234 -0.0056907297 0.4839794
-0.2507381 0.23184589 -0.15576428 -0.12957002 -0.32865968 0.0543859 -0.40124422 -0.044106614
-0.3401809 0.4822881 0.37067473 0.39348987 0.06571684 -0.20141952 0.5953454 0.36794066
-0.34279376 -0.31585607 0.38671198 -0.08817876 -0.4356387 -0.08776172 0.76440704 0.4172898
-0.30886352 -0.36522812 0.2960839 0.07142541 -0.31177598 -0.1411449 -0.34620932 -0.3114557
-0.022545183 0.17473772 -0.622152 -0.0061625657 -0.48782098 -0.45045084 -0.72103053 -0.3059001
0.47624755 0.31041014 0.35569558 0.26353857 -0.23235212 0.3056067 -0.752639 -0.37075317
-0.4106044 0.24654926 0.4509976 -0.20419711 0.1932843 -0.282757 0.5796826 0.3797513
0.40249488 -0.21501657 0.1147211 -0.1829359 -0.11270374 0.434357 -0.3896559 -0.35112646
00000000: 3e17 753e 9090 b83d 9e7d e1be 2032 8b3e
00000010: e3d6 b5be 42f8 b83e 6396 9f3e 5e8d 76be
00000020: 9c56 96be eb8b f2bd 079d 0fbe 086a 3c3d
00000030: e090 323c 01f3 d1bb 1ab2 be3e 2a66 5cbd
00000040: 0d0a bcbe ccd2 8ebe 2f58 2dbf bd0a abbe
00000050: b616 ab3e 3dfc a1bc df1f 303f acd3 9a3d
00000060: 9383 d3bc 59af ed3e 26e8 163f 37d7 713e
00000070: ac82 e23e 80bd 04be 37e8 bf3e e101 d33e
00000080: a377 92be a912 22be 8667 613e fe30 82be
00000090: ad96 efbe 00b3 4ebe 8183 0b3f 727d 5e3c
000000a0: 452d c2be ea3d 853c 17a3 7abe e7b9 e53e
000000b0: 448d a3bd ea6e 003d 97ab 03bf 85d4 393d
000000c0: baa3 f7bd d37e 0f3e 99fa c33e 7761 ef3e
000000d0: d4c7 523e 2048 81be 2bac edbe 414f 883d
000000e0: b81c 22bd ce76 82be b52a afbd 982a 8e3e
000000f0: 3d75 be3e a1b7 643d 37c4 60be 1fc1 2f3c
00000100: 32a3 98bd 1a46 67be 77fe 37bf 2bcd dfbe
00000110: e2f6 cabd 0783 aebe 6351 ae3e 0db3 cc3e
00000120: d9ef 0d3e 75c9 c4be 9711 0fbf 230d dfbe
00000130: eb63 e13e 5f2c 9c3e a454 30bc 8f06 efbe
00000140: 5550 9ebe 5df0 c2bd 0df3 a93e 8457 80bd
00000150: 8bbd 9a3e 10ad 8b3e 91b3 56be 3947 82be
00000160: 63c8 8bbe b0c4 573d fccf 1e3f 3cd5 2b3d
00000170: 02fa 3a3e ab44 aabe 3740 cbbd 652a 4cbe
00000180: c1c5 593e 9020 c8be 6787 a53d c051 513c
00000190: ba6e 503e d18f a9be b591 a13e 54c8 a6bd
000001a0: 37e2 d4bd c1ca 50be bcaa 02be 31ea dd3e
000001b0: 6c1d 01be cadb 08bd 72d0 d73c 0a17 8a3e
000001c0: 7258 e5be e224 c8be e68a 263f 1c6a 813e
000001d0: dc53 ab3d 18de 4bbd 0533 a53e db70 8c3e
000001e0: 418c 4c3e e847 0dbd 6f7b 11bf 7b24 aebc
000001f0: 314b d7be 1abf dcbe b2ab 88bb 0aba 023e
00000200: e4c0 48be ebf5 66bd 5b3c 923e dcda ab3c
00000210: 85b2 f8be 4f13 263e 9a26 c7bc 7b59 313e
00000220: bd1d 15bc 5c27 003f 915d 3b3f 1164 e53e
00000230: c288 cbbd 84eb 813e 2ae8 44bf 4f32 79be
00000240: 5e0d 1bbd f260 cb3e 1d5d 8ebd e702 e43d
00000250: dd08 c7be 2c51 c2be 04b0 35bf e047 8b3d
00000260: 3d21 47be 157f acbe 6296 b63d f5c2 e9be
00000270: b5a5 76be 8e5c c5be f085 dabe d2a1 93bd
00000280: f793 b8be a764 933e fdbb e2be a509 d7be
00000290: 048e d5bd a67a 863e 20e9 e1bd 10d6 cdbe
000002a0: 3951 d3be 3c8e 773e 177e 083f 52b1 93be
000002b0: d614 d0be 8b72 bc3e 17de 303f 212f 743e
000002c0: 3cef 7c3e 3691 c73e dae8 48be e53e c7be
000002d0: 9d95 e1be 2798 813e 4c13 0dbf 8355 b4be
000002e0: 31eb 48bd 20e2 98bd abf0 f73e c393 493d
000002f0: acb4 5abe fe77 cf3e 4d79 babb 26cc f73e
00000300: bf60 80be 0269 6d3e ac80 1fbe 01ae 04be
00000310: 1546 a8be c0c3 5e3d e26f cdbe 23a9 34bd
00000320: 312c aebe 77ee f63e 14c9 bd3e 8177 c93e
00000330: 8d96 863d eb40 4ebe 8e68 183f b862 bc3e
00000340: aa82 afbe e3b7 a1be 1dff c53e 1197 b4bd
00000350: 090c dfbe 6bbc b3bd 2eb0 433f 02a7 d53e
00000360: 5c23 9ebe 2eff babe 4f98 973e 7c47 923d
00000370: 1aa1 9fbe 4a88 10be 5942 b1be 1f77 9fbe
00000380: adb0 b8bc 72ee 323e 5a45 1fbf 59ef c9bb
00000390: acc3 f9be 7ea1 e6be 7595 38bf f09e 9cbe
000003a0: b8d6 f33e 14ee 9e3e bb1d b63e 87ee 863e
000003b0: b7ed 6dbe 7b78 9c3e f3ac 40bf 5cd3 bdbe
000003c0: bd3a d2be 6977 7c3e 28e9 e63e 0c19 51be
000003d0: 52ec 453e 87c5 90be 1466 143f c36e c23e
000003e0: cf13 ce3e 4e2d 5cbe e5f2 ea3d 8c53 3bbe
000003f0: 38d1 e6bd 0a64 de3e fa80 c7be d9c6 b3be

actor.0.bias f4 [64]
0.4465918 0.15613559 0.4362401 0.10978877 -0.11725718 0.16891193 0.1775299 -0.09348728
0.39027685 -0.076215014 -0.20589155 0.20850639 0.13110569 0.26721975 0.4736418 0.4201299
-0.40476072 0.32859147 0.25488803 -0.3728074 0.029881207 -0.36484239 0.17773819 0.054939464
0.09465656 0.06967461 -0.40915978 -0.35322016 -0.35201916 -0.43036968 0.43638 -0.07213512
0.33179268 -0.4418808 -0.44120505 0.08916422 0.41631728 0.12284824 -0.055032678 0.07582211
-0.20124602 0.43695498 -0.19221522 -0.3158596 -0.4225906 0.4513952 -0.37993652 0.17065646
0.14021523 -0.16371456 -0.25500223 0.18978828 0.33266622 0.2144079 0.31477693 0.18206842
-0.28519928 0.12594701 0.02683793 -0.20396008 -0.32261232 0.33315644 0.3970995 0.43230453
00000000: aea7 e43e 02e2 1f3e dd5a df3e efd8 e03d
00000010: 8824 f0bd 40f7 2c3e 66ca 353e 4276 bfbd
00000020: 5ed2 c73e 9e16 9cbd 3cd5 52be b382 553e
00000030: 9240 063e 07d1 883e 2e81 f23e 441b d73e
00000040: cc3c cfbe 243d a83e af80 823e 9de0 bebe
00000050: 6fc9 f43c 9fcc babe 0001 363e 3408 613d
00000060: 4cdb c13d 90b1 8e3d 647d d1be 46d9 b4be
00000070: db3b b4be 6a59 dcbe 336d df3e 94bb 93bd
00000080: bbe0 a93e 333e e2be a1e5 e1be bb9b b63d
00000090: 8a27 d53e dc97 fb3d f269 61bd 9f48 9b3d
000000a0: 7013 4ebe 90b8 df3e 11d4 44be 59b8 a1be
000000b0: cc5d d8be 461d e73e 0a87 c2be 91c0 2e3e
000000c0: 9594 0f3e caa4 27be a78f 82be dc57 423e
000000d0: 3a53 aa3e bf8d 5b3e 712a a13e 2570 3a3e
000000e0: a405 92be 41f8 003e 38db db3c e9da 50be
000000f0: 712d a5be 7b93 aa3e a050 cb3e 0557 dd3e

actor.2.weight f4 [64, 64]
0.072319604 -0.079043895 -0.031707082 0.097450405 -0.12955889 0.08029537 0.082652435 0.1217517
-0.048275556 0.05668983 -0.1131085 0.06340095 0.06207018 -0.056932703 -0.10073515 0.06361511
0.019887254 -0.059265856 -0.045479055 -0.1234825 0.07930186 -0.0408794 0.19042277 -0.12407236
-0.083946705 0.13728063 0.09701842 0.10493034 -0.07098201 0.112239115 -0.13283283 0.019864984
0.037305057 -0.03556948 0.15535428 -0.07086079 0.04745901 0.079189144 0.037532892 0.05070182
-0.11337489 0.07595021 0.13370882 0.03789506 -0.076254584 0.00496853 0.14114006 0.09776091
0.046072908 -0.013263093 0.064456955 0.17568712 0.06584387 0.1221306 0.066136956 -0.1400809
-0.16504516 -0.08321982 0.174797 -0.14799246 -0.06998928 -0.06379141 -0.017726392 0.037368353
-0.1060784 -0.01871606 0.06944166 0.05044507 -0.051450238 0.020202644 -0.027002191 0.046770055
0.031841464 0.11308419 0.01028314 -0.0117038 0.13140652 -0.12163451 -0.09989882 -0.017001076
-0.066071875 0.012080045 -0.10795001 -0.11741319 0.1139503 -0.008428355 -0.0041774698 0.03557846
-0.10218279 -0.101721495 -0.016313478 -0.024702366 0.07245959 0.131465 -0.14184201 0.09443991
-0.036714826 0.056669515 -0.030126644 0.05753695 -0.029664397 0.079493925 -0.115764126 -0.11653084
0.012478232 -0.09904146 -0.06660035 -0.043737534 -0.055064946 -0.13972443 -0.09897849 0.07868925
-0.12442686 -0.014960557 0.15466642 0.1603904 -0.02850158 -0.05670985 -0.023536664 0.053257205
-0.0634595 -0.08523671 0.08753873 0.006123111 0.03869168 -0.08192278 -0.024072122 0.015754348
-0.01166947 0.12195184 -0.06809017 0.16083792 -0.12549542 0.018632323 0.05366987 -0.0038585183
-0.07785621 0.11948201 -0.029174833 -0.13793138 -0.06539764 -0.063118644 0.12493262 -0.0071635284
-0.16040756 0.07648569 -0.11637694 0.08284157 0.12673628 0.062188316 0.15234101 -0.123522244
0.025911143 -0.00714054 0.025010977 -0.008406482 0.11175885 0.067636974 -0.028270906 -0.0164676
0.13706265 0.08455456 0.08633395 -0.12463504 -0.025137166 -0.14810069 -0.087485515 -0.15101245
-0.13232063 -0.13527215 -0.06543799 0.033682447 0.10234587 -0.023996878 0.03877639 -0.09844575
0.11186674 0.033684313 0.12445861 0.17223424 0.09699339 0.07981364 0.124595925 -0.012612207
-0.17748243 0.03047944 0.09910785 -0.04748535 0.044732228 0.11970734 0.08296492 0.006188611
-0.07228986 0.017280782 0.016786097 0.07071787 0.028159495 -0.053506654 -0.0010203859 0.08425128
0.044297643 -0.037593964 -0.07697958 -0.12790027 0.057360973 -0.035611328 0.10883015 0.08320606
-0.12248764 0.14821966 -0.00391342 -0.09362147 -0.07249771 -0.0902296 0.015832549 0.032697696
0.08758661 0.04675868 0.106417954 0.09642814 -0.048850022 0.12973507 -0.16898002 0.016338645
0.027369237 -0.09209524 -0.007919973 -0.20337096 -0.075631425 -0.0721105 0.10154594 0.013520624
-0.1386301 0.054611664 -0.014370932 0.14718577 -0.12037223 -0.08218029 0.091402 -0.06009773
0.0468347 0.04705036 0.014215104 0.12049429 -0.08387789 -0.020930925 -0.09365366 -0.008357801
-0.1044543 -0.08030987 0.018759852 -0.12702836 0.12555565 -0.025173068 0.0046079727 -0.024421398
00000000: 4d1c 943d c4e1 a1bd 49df 01bd 1494 c73d
00000010: 16ab 04be e671 a43d ae45 a93d f558 f93d
00000020: 97bc 45bd 9833 683d 6ea5 e7bd 5bd8 813d
00000030: 4d3d 7e3d 4432 69bd 3b4e cebd a448 823d
00000040: 98ea a23c c1c0 72bd 3f48 3abd 65e4 fcbd
00000050: 0369 a23d 2871 27bd 30fe 423e a619 febd
00000060: 40ec abbd 4b93 0c3e 98b1 c63d b8e5 d63d
00000070: 045f 91bd 9fdd e53d 5405 08be e4bb a23c
00000080: 30cd 183d 4eb1 11bd 3115 1f3e 761f 91bd
00000090: 6164 423d eb2d a23d 17bc 193d b6ac 4f3d
000000a0: 1831 e8bd c98b 9b3d f7ea 083e da37 1b3d
000000b0: 5d2b 9cbd 0dcf a23b 0587 103e df36 c83d
000000c0: f2b6 3c3d 724d 59bc 0202 843d 53e7 333e
000000d0: 27d9 863d 9c1f fa3d d072 873d 5e71 0fbe
000000e0: 9901 29be 276f aabd fcfd 323e 568b 17be
000000f0: 8a56 8fbd 12a5 82bd f036 91bc 8f0f 193d
00000100: a23f d9bd 6c52 99bc 6e37 8e3d 7d9f 4e3d
00000110: 7cbd 52bd 0480 a53c b333 ddbc f591 3f3d
00000120: 326c 023d af98 e73d 9e7a 283c 4cc1 3fbc
00000130: 6e8f 063e 841b f9bd c197 ccbd d745 8bbc
00000140: b150 87bd 62eb 453c e514 ddbd 5476 f0bd
00000150: c65e e93d 1517 0abc 28e3 88bb b8ba 113d
00000160: 3645 d1bd 5c53 d0bd d8a3 85bc 9e5c cabc
00000170: b265 943d c39e 063e 083f 11be b669 c13d
00000180: 4962 16bd 4b1e 683d 27cc f6bc ddab 6b3d
00000190: c002 f3bc b6cd a23d be15 edbd b9a7 eebd
000001a0: 8071 4c3c 40d6 cabd c465 88bd 2126 33bd
000001b0: c88b 61bd ec13 0fbe 3cb5 cabd d427 a13d
000001c0: 82d3 febd 201d 75bc e060 1e3e 623d 243e
000001d0: 257c e9bc 9648 68bd f6cf c0bc 3a24 5a3d
000001e0: 0ef7 81bd 9690 aebd 8147 b33d 61a4 c83b
000001f0: 2b7b 1e3d 21c7 a7bd e632 c5bc 430f 813c
00000200: 4e31 3fbc e3c1 f93d dc72 8bbd b2b2 243e
00000210: df81 00be d0a2 983c f0d4 5b3d 32df 7cbb
00000220: 1473 9fbd fcb2 f43d 0f00 efbc e23d 0dbe
00000230: 33ef 85bd 5944 81bd acdc ff3d 08bc eabb
00000240: e141 24be 88a4 9c3d 0857 eebd d7a8 a93d
00000250: 28c7 013e 2db9 7e3d 48ff 1b3e 3bf9 fcbd
00000260: 9b43 d43c 31fb e9bb d2e3 cc3c 57bb 09bc
00000270: d3e1 e43d 4185 8a3d 6398 e7bc 0fe7 86bc
00000280: 275a 0c3e f12a ad3d dbcf b03d a840 ffbd
00000290: 75ec cdbc b5a7 17be 9b2b b3bd 02a3 1abe
000002a0: 0f7f 07be c884 0abe 5a04 86bd 9bf6 093d
000002b0: b69a d13d 1a95 c4bc fed3 1e3d ed9d c9bd
000002c0: 641a e53d 90f8 093d 28e4 fe3d 2c5e 303e
000002d0: 78a4 c63d 5575 a33d 262c ff3d 6ea3 4ebc
000002e0: f4bd 35be 05b0 f93c 0ef9 ca3d 0080 42bd
000002f0: 2439 373d 1f29 f53d 83e9 a93d d5c9 ca3b
00000300: b50c 94bd 6d90 8d3c ff82 893c 88d4 903d
00000310: beae e63c cb29 5bbd 78be 85ba ef8b ac3d
00000320: 7271 353d 21fc 19bd 78a7 9dbd 4af8 02be
00000330: 57f3 6a3d 2fdd 11bd 57e2 de3d f067 aa3d
00000340: cdda fabd e5c6 173e 253c 80bb 9dbc bfbd
00000350: ae79 94bd 4cca b8bd 43b3 813c 05ee 053d
00000360: 9c60 b33d 0886 3f3d a8f1 d93d 1e7c c53d
00000370: f616 48bd 45d9 043e 1909 2dbe 9fd8 853c
00000380: 7335 e03c 6e9c bcbd c6c2 01bc 7a40 50be
00000390: a6e4 9abd abae 93bd 51f7 cf3d 9b85 5d3c
000003a0: 0df5 0dbe 7bb0 5f3d 0f74 6bbc deb7 163e
000003b0: b785 f6bd 244e a8bd f930 bb3d 0a29 76bd
000003c0: bed5 3f3d e1b7 403d 78e6 683c b6c5 f63d
000003d0: 2cc8 abbd 5577 abbc 7dcd bfbd 28ef 08bc
000003e0: 23ec d5bd 8079 a4bd 43ae 993c b913 02be
000003f0: a991 003e c037 cebc 7afe 963b 620f c8bc

actor.2.bias f4 [64]
-0.0350618 0.095811754 0.020333897 0.1053764 -0.027055228 0.09009692 -0.12756579 0.01198138
-0.10951444 0.048032533 0.08745593 -0.020743312 0.07072153 0.08808552 0.040019542 -0.011080504
0.027761154 0.03604207 -0.01506429 -0.13616242 0.06758876 0.050959393 0.10412551 0.009782336
0.005348406 -0.057904035 0.10963522 -0.14037618 -0.05089545 -0.05450027 0.07659873 -0.040064458
0.01584626 -0.077924885 0.05032635 -0.046738546 -0.07407796 0.110859096 -0.08107681 -0.09398326
0.10573983 0.07508578 -0.022796439 0.097319104 0.04923585 0.02054594 -0.07950832 -0.04210943
-0.021041967 0.07634029 -0.10387264 -0.092053115 0.07303458 -0.093776576 -0.13453189 0.09492368
-0.007828049 0.13840994 0.04660857 0.12494263 0.081575476 -0.0029613033 0.081096776 0.0122477785
00000000: f69c 0fbd f438 c43d 4693 a63c 95cf d73d
00000010: eda2 ddbc bc84 b83d 9ba0 02be 8d4d 443c
00000020: 1b49 e0bd c3bd 443d 181c b33d e1ed a9bc
00000030: 73d6 903d 2e66 b43d 88eb 233d 018b 35bc
00000040: 5c6b e33c d9a0 133d 36d0 76bc 296e 0bbe
00000050: fa6b 8a3d ccba 503d c13f d53d 1746 203c
00000060: ae41 af3b c82c 6dbd 6e88 e03d c6be 0fbe
00000070: bf77 50bd ad3b 5fbd ccdf 9c3d a11a 24bd
00000080: 04d0 813c 1597 9fbd 0123 4e3d eb70 3fbd
00000090: 2fb6 97bd 180a e33d 990b a6bd 4c7a c0bd
000000a0: 208e d83d 93c6 993d 99bf babc 3d4f c73d
000000b0: 88ab 493d f64f a83c 42d5 a2bd f07a 2cbd
000000c0: 3460 acbc 4c58 9c3d 2ebb d4bd 5886 bcbd
000000d0: 2793 953d ef0d c0bd bac2 09be 5967 c23d
000000e0: 3841 00bc 56bb 0d3e a1e8 3e3d ece1 ff3d
000000f0: 0b11 a73d 6d12 42bb 1116 a63d e8aa 483c

actor.4.weight f4 [2, 64]
-0.17296213 -0.11201453 -0.20448826 -0.112050876 0.15183975 0.0017282405 0.044748865 -0.08784734
0.04098221 0.046830848 0.07673888 0.03305878 0.16941713 -0.08840551 0.06068387 0.11460607
0.043445148 -0.14503674 0.078605585 0.01777156 -0.09111258 0.13025627 0.011197094 0.069431506
-0.08701884 0.09336439 0.14747754 0.13662809 0.056331027 0.0711625 -0.0011064121 -0.061333824
0.10400247 -0.053720295 0.106708646 -0.07611277 0.14175129 0.13202696 0.01767738 0.000101745965
0.14903082 -0.11803191 0.13844672 -0.012128597 0.07460342 0.15928037 -0.11500519 -0.0468274
0.0906772 -0.072432585 0.023838563 -0.18084215 0.07706619 -0.15158693 0.12754321 -0.09641624
0.156991 -0.20825791 0.11164183 -0.07988215 -0.0894777 0.07601146 -0.18719877 -0.068050876
0.09174051 0.05010155 0.1296021 0.05508308 0.05554188 -0.09390481 -0.18018872 -0.059990857
0.104122296 -0.17454402 -0.12982242 0.033375755 -0.12279339 0.07889317 0.09085349 -0.12804024
0.1596438 -0.020775411 -0.14450082 -0.21219926 0.10099738 -0.058012996 -0.11489529 -0.062157642
0.059456494 -0.09303989 -0.014889 -0.1306666 -0.102828585 -0.0694943 0.15468489 0.099317394
0.00013851878 0.14658165 -0.14140005 -0.04070828 -0.116910405 -0.16386375 -0.17342347 -0.07095432
0.035691828 0.023866178 -0.063869335 -0.13542159 -0.075074054 -0.067391604 0.118482515 0.029298685
-0.07726155 -0.04072156 -0.16903032 -0.029724639 -0.20102078 0.090381615 -0.11210315 0.13372706
-0.08987355 0.033008225 -0.01950438 0.06364724 0.19226977 -0.061995722 0.070858344 -0.14524175
00000000: fc1c 31be e067 e5bd 5f65 51be ee7a e5bd
00000010: e17b 1b3e 2186 e23a 964a 373d 4ee9 b3bd
00000020: f6dc 273d b4d1 3f3d 4629 9d3d a568 073d
00000030: af7b 2d3e f30d b5bd a68f 783d 96b6 ea3d
00000040: 8af3 313d 8384 14be f7fb a03d aa95 913c
00000050: 3b99 babd e661 053e 0474 373c 1b32 8e3d
00000060: ef36 b2bd d435 bf3d 5a04 173e 3ce8 0b3e
00000070: 5dbb 663d a5bd 913d 0805 91ba 2d39 7bbd
00000080: 3fff d43d d009 5cbd 108a da3d 03e1 9bbd
00000090: 4027 113e 1332 073e 27d0 903c 7360 d538
000000a0: 899b 183e b7ba f1bd fac4 0d3e 06b7 46bc
000000b0: aec9 983d 651a 233e d787 ebbd 16ce 3fbd
000000c0: f8b4 b93d 8957 94bd 1749 c33c af2e 39be
000000d0: e1d4 9d3d 9b39 1bbe b09a 023e e175 c5bd
000000e0: 40c2 203e 9041 55be 79a4 e43d 4199 a3bd
000000f0: 1640 b7bd e5ab 9b3d 09b1 3fbe 425e 8bbd
00000100: 73e2 bb3d 4837 4d3d 6ab6 043e cc9e 613d
00000110: e27f 633d 2a51 c0bd 6483 38be f9b8 75bd
00000120: 123e d53d abbb 32be 2bf0 04be 04b5 083d
00000130: 1a7b fbbd be92 a13d 6511 ba3d fb1c 03be
00000140: aa79 233e 3231 aabc 06f8 13be c34a 59be
00000150: b7d7 ce3d 099f 6dbd 394e ebbd 0399 7ebd
00000160: a788 733d b38b bebd fef0 73bc 77cd 05be
00000170: cb97 d2bd 0753 8ebd b765 1e3e eb66 cb3d
00000180: 5a3f 1139 8019 163e 2dcb 10be babd 26bd
00000190: b96e efbd e6cb 27be ec95 31be 8050 91bd
000001a0: 9831 123d 0183 c33c edcd 82bd f5ab 0abe
000001b0: 6dc0 99bd 9c04 8abd f6a6 f23d cc03 f03c
000001c0: 4e3b 9ebd a7cb 26bd 4916 2dbe 1681 f3bc
000001d0: 64d8 4dbe ff19 b93d 5696 e5bd bfef 083e
000001e0: a00f b8bd a233 073d a6c7 9fbc 7c59 823d
000001f0: 5ee2 443e 3aef 7dbd 2e1e 913d 41ba 14be

actor.4.bias f4 [2]
-0.0049186726 0.07609679
00000000: d12c a1bb a2d8 9b3d

critic.0.weight f4 [64, 4]
0.18592228 -0.30552918 1.1238036 0.032897733 0.07063631 -0.30557075 0.8403123 0.22524956
0.12956426 0.09907156 0.6809312 0.30450818 -0.5488641 -0.06934166 0.52532727 0.18761772
0.008252639 -0.27299288 -0.19705355 -0.3371107 -0.20258309 0.45290607 -0.8134835 -0.04293363
-0.08920633 -0.41609773 0.51084983 0.38578528 -0.097950555 -0.31943867 0.2687723 0.3382186
-0.41952455 0.39791256 -0.30060136 -0.41771922 0.2045975 0.21130827 0.59318334 0.33785456
0.03981867 -0.21062122 -0.12339534 -0.18832572 0.5379055 -0.5142905 -0.57245654 -0.53563005
-0.21962307 0.16262284 -0.83303785 -0.092067614 0.1552654 0.07519975 1.2135639 -0.26006535
0.5190623 0.39089182 0.35571578 0.124575414 -0.10035898 0.22158511 0.6543602 0.4643113
-0.04855613 0.33138722 -0.5751099 -0.29402533 -0.014244521 -0.41886684 0.09966199 -0.19183534
-0.14437267 -0.44059703 -0.91702944 -0.5475904 -0.025140768 -0.16613498 -0.15382203 0.26942924
0.09328231 0.43342867 0.8252388 0.56060976 -0.09789754 -0.10892759 -0.6687758 -0.071086615
0.26508757 0.18613653 0.2522284 -0.20761749 0.05998857 -0.25964314 -0.42574665 -0.0098117385
-0.24418671 -0.021104401 -0.31799787 0.51577264 -0.45904562 0.113812715 -0.4970365 -0.23697099
-0.3724709 -0.056295734 -0.752725 0.05803835 -0.19078009 -0.2723791 -0.68807715 -0.40071014
0.0850406 0.14013323 0.20529081 0.09914853 -0.26264206 -0.2537865 0.11171413 0.2411001
-0.026444081 -0.06325271 -0.719198 -0.20227145 0.10727264 -0.19953595 0.75378287 0.14217332
0.023229588 0.26856872 -0.518928 -0.06164905 0.058508944 0.61447346 0.99819434 0.43397215
-0.117800266 0.48676035 -0.977073 -0.22409762 0.3054213 0.40876725 0.3293557 0.46825764
-0.09855003 -0.38450354 -0.9012609 -0.25758475 -0.013128554 -0.041375503 0.3358751 -0.17627968
-0.18732542 0.35376123 -0.48978254 0.18753709 -0.119205266 -0.24115671 -1.1925348 -0.084975824
-0.07601009 0.28190064 -0.24198057 0.22395666 -0.045873836 -0.47020102 -0.7890925 -0.20151855
0.2159279 0.59415656 1.1589074 0.4738395 0.4210119 -0.56265825 -0.4772951 -0.4238637
0.1404572 0.050010387 0.878189 0.18234456 -0.21412882 -0.22923338 -1.3924985 -0.046877705
-0.23589349 0.021734403 0.39519107 0.41669208 -0.15374167 -0.13492568 -1.19892 -0.06091403
-0.18520081 0.57434595 0.61545485 0.28479826 -0.2300906 0.33230147 -0.052809782 0.012834069
0.08021829 -0.24804562 -0.01614361 -0.11152703 0.1952255 0.13050453 0.027350776 0.18782265
-0.06278918 -0.07091658 -0.19912766 0.17872761 0.54024726 0.013879215 0.26496705 0.45413828
0.03946571 -0.1833123 -0.39540973 -0.012921442 -0.1765255 -0.081780985 -1.0865179 -0.5427124
0.23310558 -0.15694095 0.7323623 -0.060432173 -0.26655602 -0.4351601 -0.47715345 -0.3295589
0.17611334 0.16271578 0.36988527 0.052515034 -0.118110456 0.30116844 -0.17454748 0.028922485
-0.1275888 0.07319145 0.06036561 0.3046364 0.44043002 0.3413488 0.2529391 0.08477422
0.48550382 0.020100357 0.589823 -0.42787138 0.025802875 0.15571418 -0.04397045 0.35620338
00000000: 6962 3e3e 526e 9cbe ccd8 8f3f c6bf 063d
00000010: c5a9 903d c573 9cbe b51e 573f d2a7 663e
00000020: 7eac 043e 08e6 ca3d 8251 2e3f 7fe8 9b3e
00000030: 5c82 0cbf 0003 8ebd d97b 063f dc1e 403e
00000040: 1436 073c b9c5 8bbe 68c8 49be c699 acbe
00000050: f171 4fbe 4ee3 e73e 7440 50bf 2ddb 2fbd
00000060: cfb1 b6bd c30a d5be 0ec7 023f a685 c53e
00000070: 4d9a c8bd 778d a3be 869c 893e fd2a ad3e
00000080: eccb d6be 32bb cb3e 6ce8 99be 4bdf d5be
00000090: 0282 513e 3261 583e ddda 173f 46fb ac3e
000000a0: e718 233d 17ad 57be b2b6 fcbd 75d8 40be
000000b0: 2db4 093f 8ba8 03bf 838c 12bf 0d1f 09bf
000000c0: dfe4 60be 9a86 263e f841 55bf f28d bcbd
000000d0: e5fd 1e3e 5402 9a3d 1056 9b3f 4927 85be
000000e0: 44e1 043f f922 c83e 6120 b63e 6521 ff3d
000000f0: 0289 cdbd 35e7 623e 2684 273f 36ba ed3e
00000100: cbe2 46bd 96ab a93e 673a 13bf 7d8a 96be
00000110: da61 69bc b775 d6be 961b cc3d 7c70 44be
00000120: 6ed6 13be ef95 e1be 71c2 6abf e22e 0cbf
00000130: 03f4 cdbc 4a1f 2abe 8683 1dbe a1f2 893e
00000140: cc0a bf3d 5dea dd3e da42 533f 1f84 0f3f
00000150: 817e c8bd 6e15 dfbd e434 2bbf dc95 91bd
00000160: 8fb9 873e 939a 3e3e 1524 813e ae99 54be
00000170: 93b6 753d f2ef 84be 77fb d9be 6ac1 20bc
00000180: 150c 7abe 23e3 acbc 9ed0 a2be ad09 043f
00000190: 0708 ebbe a416 e93d 917b febe 86a8 72be
000001a0: 81b4 bebe 5b96 66bd 96b2 40bf 9fb9 6d3d
000001b0: db5b 43be 4675 8bbe d325 30bf e129 cdbe
000001c0: c429 ae3d 167f 0f3e c137 523e 620e cb3d
000001d0: 0579 86be 4ef0 81be 61ca e43d f2e2 763e
000001e0: 42a1 d8bc a38a 81bd 5c1d 38bf 3f20 4fbe
000001f0: c2b1 db3d 2753 4cbe eaf7 403f e295 113e
00000200: fa4b be3c d781 893e 77d8 04bf b783 7cbd
00000210: 13a7 6f3d 224e 1d3f aa89 7f3f 9931 de3e
00000220: 4441 f1bd a738 f93e 7521 7abf d979 65be
00000230: 2e60 9c3e f149 d13e 4fa1 a83e 77bf ef3e
00000240: 99d4 c9bd a6dd c4be 09b9 66bf 26e2 83be
00000250: 2619 57bc 5c79 29bd d2f7 ab3e a982 34be
00000260: 3cd2 3fbe 3120 b53e c7c4 fabe b909 403e
00000270: e421 f4bd c9f1 76be fba4 98bf ce07 aebd
00000280: 2eab 9bbd 4855 903e c1c9 77be e554 653e
00000290: 34e6 3bbd 30be f0be f701 4abf e15a 4ebe
000002a0: 341c 5d3e a51a 183f 1457 943f 179b f23e
000002b0: df8e d73e 5f0a 10bf 0660 f4be aa04 d9be
000002c0: 03d4 0f3e b1d7 4c3d ffd0 603f 88b8 3a3e
000002d0: 9644 5bbe 28bc 6abe 643d b2bf d602 40bd
000002e0: 108e 71be 590c b23c 7c56 ca3e aa58 d53e
000002f0: 756e 1dbe f529 0abe 3676 99bf fd80 79bd
00000300: 48a5 3dbe 5608 133f 738e 1d3f 14d1 913e
00000310: df9c 6bbe 6b23 aa3e 124f 58bd fd45 523c
00000320: 7d49 a43d acff 7dbe 9b3f 84bc 4968 e4bd
00000330: 32e9 473e fba2 053e bc0e e03c 9554 403e
00000340: 9d97 80bd b63c 91bd 1fe8 4bbe 5f04 373e
00000350: a54d 0a3f a665 633c c3a9 873e d084 e83e
00000360: cca6 213d 38b6 3bbe 2573 cabe 75b4 53bc
00000370: 1ac3 34be ca7c a7bd 0513 8bbf 33ef 0abf
00000380: 3bb3 6e3e 21b5 20be 187c 3b3f ba87 77bd
00000390: 087a 88be 4ecd debe 754d f4be f2bb a8be
000003a0: 0e57 343e f79e 263e 9a61 bd3e 011a 573d
000003b0: e5e3 f1bd c032 9a3e 93bc 32be d9ee ec3c
000003c0: a3a6 02be 66e5 953d ee41 773d 4df9 9b3e
000003d0: 0b80 e13e 45c5 ae3e 3c81 813e 1b9e ad3d
000003e0: f593 f83e 81a9 a43c a4fe 163f f511 dbbe
000003f0: 8d60 d33c 8a73 1f3e 5c1a 34bd 4a60 b63e

critic.0.bias f4 [64]
-0.08771103 0.19738051 0.06199427 0.38080674 0.07803871 -0.736285 -0.38785854 0.46088523
-0.55822706 -0.24386694 -0.28711098 0.4385385 -0.24361484 -0.042678814 0.72310513 0.45505023
0.046519432 -0.39240012 0.23572388 0.05609341 -0.29206136 -0.40586948 0.4072663 -0.6688125
-0.169394 0.7594182 0.35960922 0.10682697 -0.624303 0.42861855 -0.4105333 0.16973783
-0.024110561 -0.49776703 -0.23710734 -0.65023106 0.24305594 -0.6508396 -0.54068315 0.08682877
0.6632733 -0.012867292 0.54124904 0.31842384 0.102327414 0.27335984 0.3636425 0.072357245
0.30789095 -0.05195478 0.58484656 -0.2371395 0.031102693 -0.64228505 -0.42766753 -0.47837788
0.18418883 -0.54407746 -0.32320422 -0.18435718 0.35869095 0.59094393 -0.3889611 -0.069426924
00000000: d7a1 b3bd 1e1e 4a3e b4ed 7d3d 1af9 c23e
00000010: c2d2 9f3d 2c7d 3cbf 6595 c6be 26f9 eb3e
00000020: f8e7 0ebf 41b8 79be 3600 93be 1e88 e03e
00000030: 2b76 79be fbcf 2ebd 6b1d 393f 58fc e83e
00000040: 298b 3e3d abe8 c8be 9a61 713e 34c2 653d
00000050: 1189 95be 20ce cfbe 3585 d03e 4c37 2bbf
00000060: 9f75 2dbe 3b69 423f b31e b83e 19c8 da3d
00000070: 52d2 1fbf e473 db3e 6c31 d2be c1cf 2d3e
00000080: 8383 c5bc 52db febe 44cc 72be 8b75 26bf
00000090: a8e3 783e 6d9d 26bf 366a 0abf 48d3 b13d
000000a0: 47cc 293f 56d1 52bc 4c8f 0a3f 7308 a33e
000000b0: 0991 d13d d2f5 8b3e 5a2f ba3e 0930 943d
000000c0: e2a3 9d3e 89ce 54bd 81b8 153f b2d4 72be
000000d0: 13cb fe3c cb6c 24bf 3df7 dabe f2ed f4be
000000e0: ff9b 3c3e a948 0bbf 067b a5be 21c8 3cbe
000000f0: 57a6 b73e 1a48 173f e925 c7be b42f 8ebd

critic.2.weight f4 [64, 64]
-0.19185728 -0.11506249 -0.30134517 0.118807875 0.1485208 0.0003153794 0.0019222881 0.15994312
-0.18554586 -0.26624614 0.13333596 0.22224995 0.13803759 -0.08485769 0.0812822 -0.002203609
0.11664068 -0.085975856 0.4880713 0.09242299 -0.57102144 0.18188362 0.015433238 -0.08439659
-0.03711158 0.3944299 0.3195787 0.35698777 -0.3065778 0.2506765 0.004274766 -0.19801256
0.00979184 -0.32702848 0.022966327 -0.49897468 0.5126094 -0.12833294 -0.103073925 0.13495533
0.024286557 0.1682881 -0.1769211 0.08048754 -0.28057128 0.33337188 0.08748586 0.29367018
-0.15756406 0.01733074 0.13280995 -0.13784772 0.108293295 -0.27778345 -0.045758925 0.15945251
-0.29415303 0.07175929 -0.08294804 0.09895099 0.15020199 0.05762382 -0.22039849 0.065563604
-0.056336697 -0.03356313 0.027883263 -0.11748989 -0.08010232 0.17164353 0.083307564 -0.1672598
0.1548917 -0.054767687 0.13144745 -0.33922085 0.21779172 0.034252353 -0.24061897 -0.089348055
-0.11859564 0.051816568 0.050426666 -0.034714375 0.015244021 0.014790524 -0.3011021 0.08095965
0.18305111 -0.18079881 0.04103799 -0.02310306 0.091183975 -0.083290614 0.0730218 0.035557903
0.047516417 0.10517857 0.0336767 0.1498115 0.015839275 0.12122253 0.06659712 0.18652287
-0.088372156 0.14783023 -0.2686454 -0.05224591 -0.12890646 -0.013163216 0.06931817 0.087595396
-0.08963293 0.16506639 0.060181636 -0.017632803 -0.06421758 0.22502139 0.11356981 0.26464272
-0.03599972 0.1595339 0.10203707 -0.043418717 0.094696105 -0.23588142 -0.03225457 0.07819014
-0.083697505 -0.006322271 0.018996315 -0.065828964 -0.052233282 0.16323711 -0.0034681207 -0.10706641
0.058004063 0.090732045 0.10473169 -0.04666925 0.10545247 -0.054733995 -0.045369226 -0.114403725
-0.13222517 0.106087 -0.0018890564 0.10899283 -0.01780115 0.2190511 0.052034285 0.33639777
0.04773533 -0.021642307 -0.009074968 0.07907282 0.31684485 0.05948554 0.038479965 -0.08657006
-0.06786684 0.03947457 -0.11554098 0.114591956 -0.041461088 0.21833654 0.23812258 -0.038593024
-0.10322468 0.030901672 0.08860441 0.07329099 0.077059254 0.0010590499 0.022787064 0.08199073
-0.11711713 -0.019033115 -0.30412352 0.11066321 0.068521515 0.087857835 0.26982233 0.09674485
-0.20836788 0.026891913 0.08850546 0.08302296 -0.1701913 0.0047494355 -0.045537423 -0.04955349
0.14944857 0.09998583 0.09403936 -0.27498466 -0.18403062 -0.009722053 0.062072877 -0.19843315
0.097913206 0.16113375 0.12129282 -0.24426806 -0.15874521 0.21192683 -0.027978763 -0.033290744
-0.11366031 0.038406853 -0.41606012 -0.0042990106 0.54187757 -0.016692996 -0.1440488 -0.03661247
-0.057429098 -0.31603822 -0.3568411 -0.21227616 0.21421361 -0.31406435 -0.10875355 0.1544374
-0.041735932 0.21828112 -0.10987437 0.290342 -0.23714887 0.20366497 -0.07837145 -0.12896071
-0.16326435 -0.23683932 0.025841063 -0.13717405 0.039959002 -0.41822615 -0.20833886 -0.26195857
-0.0050507523 0.0148340305 -0.12904698 0.16762829 -0.043209035 0.51273924 0.011503889 -0.08399959
0.13217396 0.094780184 0.19460286 -0.051481064 -0.096493825 -0.03349225 0.26482037 -0.012215954
00000000: 3c76 44be e2a5 ebbd ea49 9abe 8b51 f33d
00000010: d615 183e 8259 a539 49f5 fb3a 21c8 233e
00000020: bcff 3dbe 6a51 88be 3989 083e 7e95 633e
00000030: ba59 0d3e dec9 adbd 4877 a63d 6d6a 10bb
00000040: 4fe1 ee3d 1c14 b0bd 7be4 f93e 4448 bd3d
00000050: 762e 12bf b33f 3a3e b1db 7c3c 1fd8 acbd
00000060: 5002 18bd b7f2 c93e d29f a33e 1ac7 b63e
00000070: c4f7 9cbe ac58 803e 5613 8c3b cec3 4abe
00000080: f46d 203c 4770 a7be e123 bc3c 9c79 ffbe
00000090: 5f3a 033f b669 03be 6c18 d3bd bb31 0a3e
000000a0: 9af4 c63c b753 2c3e ce2a 35be a7d6 a43d
000000b0: 0aa7 8fbe b8af aa3e c92b b33d f05b 963e
000000c0: 7958 21be 32f9 8d3c 55ff 073e f427 0dbe
000000d0: e0c8 dd3d a239 8ebe b66d 3bbd 8547 233e
000000e0: 3a9b 96be 89f6 923d a9e0 a9bd d1a6 ca3d
000000f0: 8dce 193e f406 6c3d 24b0 61be 3646 863d
00000100: 4fc1 66bd 7e79 09bd 716b e43c 8a9e f0bd
00000110: af0c a4bd 52c3 2f3e 289d aa3d 2746 2bbe
00000120: ee9b 1e3e 1554 60bd 299a 063e 5bae adbe
00000130: cb04 5f3e 324c 0c3d d264 76be 1dfc b6bd
00000140: 45e2 f2bd 9c3d 543d 318c 4e3d a930 0ebd
00000150: 0fc2 793c f453 723c 0e2a 9abe 2cce a53d
00000160: c071 3b3e 5323 39be 7417 283d a142 bdbc
00000170: aabe ba3d 4594 aabd 748c 953d 2aa5 113d
00000180: 93a0 423d dd67 d73d 94f0 093d 3068 193e
00000190: 5ec1 813c 8543 f83d 1264 883d daff 3e3e
000001a0: 76fc b4bd cf60 173e e48b 89be cfff 55bd
000001b0: 0e00 04be 88aa 57bc aff6 8d3d 3765 b33d
000001c0: 7891 b7bd 2a07 293e 0581 763d ab72 90bc
000001d0: 8284 83bd 026c 663e 4a97 e83d 407f 873e
000001e0: 7174 13bd db5c 233e d0f8 d03d d3d7 31bd
000001f0: 08f0 c13d e68a 71be 5e1d 04bd 2722 a03d
00000200: 9969 abbd 0e2b cfbb 299e 9b3c 56d1 86bd
00000210: 91f2 55bd a127 273e 6949 63bb a245 dbbd
00000220: ab95 6d3d b9d1 b93d 917d d63d 4128 3fbd
00000230: 77f7 d73d c130 60bd 15d5 39bd 804c eabd
00000240: 0966 07be 2444 d93d 379a f7ba a237 df3d
00000250: b8d3 91bc ee4e 603e e721 553d 543c ac3e
00000260: 1f86 433d 354b b1bc 2daf 14bc eef0 a13d
00000270: 7d39 a23e 1ca7 733d 2b9d 1d3d a54b b1bd
00000280: c5fd 8abd 16b0 213d c0a0 ecbd 30af ea3d
00000290: 1ad3 29bd 9d93 5f3e 68d6 733e b813 1ebd
000002a0: 7667 d3bd 8125 fd3c 3b76 b53d 9619 963d
000002b0: 3ed1 9d3d d1cf 8a3a f0ab ba3c c1ea a73d
000002c0: 1bdb efbd 56eb 9bbc 14b6 9bbe 65a3 e23d
000002d0: 0255 8c3d cfee b33d 2726 8a3e 2a22 c63d
000002e0: 645e 55be 6e4c dc3c 5a42 b53d f107 aa3d
000002f0: a146 2ebe 27a1 9b3b 7385 3abd 9af8 4abd
00000300: 0c09 193e 5fc5 cc3d b597 c03d caca 8cbe
00000310: 8672 3cbe 3f49 1fbc 2140 7e3d 0f32 4bbe
00000320: b886 c83d 3f00 253e 5f68 f83d 6821 7abe
00000330: 1b8e 22be 5903 593e b833 e5bc e05b 08bd
00000340: bdc6 e8bd 8150 1d3d d505 d5be b7de 8cbb
00000350: 7db8 0a3f c0bf 88bc 8781 13be f5f6 15bd
00000360: c63a 6bbd c3cf a1be e0b3 b6be ec5e 59be
00000370: d05a 5b3e 0bcd a0be 2eba debd d624 1e3e
00000380: 4cf3 2abd 1685 5f3e d005 e1bd b5a7 943e
00000390: 27d7 72be 8d8d 503e 3681 a0bd 470e 04be
000003a0: c52e 27be 0286 72be a3b0 d33c 5b77 0cbe
000003b0: 0dac 233d bd21 d6be c856 55be 6f1f 86be
000003c0: c880 a5bb 6f0a 733c e424 04be c0a6 2b3e
000003d0: f5fb 30bd e142 033f cf7a 3c3c fa07 acbd
000003e0: 9c58 073e 1d1c c23d f945 473e cfdd 52bd
000003f0: 8e9e c5bd 2b2f 09bd 8996 873e 6d25 48bc

critic.2.bias f4 [64]
0.19787182 -0.11066233 -0.17401072 -0.09118576 0.020630118 -0.18132427 -0.033149574 0.13037181
0.19158673 0.034658723 -0.38716647 -0.2420536 -0.13496783 0.12953457 0.09416441 -0.14434884
-0.19492915 -0.08532204 -0.11590552 0.3171731 -0.3694442 0.21588819 -0.061321303 0.270844
0.3605756 -0.10420514 -0.113132775 -0.29898095 0.04304754 -0.15573856 -0.117016055 -0.26697177
0.324826 0.078204066 -0.16040024 0.3757727 -0.29377636 0.01584953 -0.0060438337 0.115865916
0.0048568626 0.27147985 -0.18483876 -0.26932916 -0.2855611 -0.38991064 0.087828 0.22094248
-0.23787871 -0.14203279 -0.033612687 0.17480922 0.053105094 0.27244335 -0.11505016 -0.046417758
-0.18859637 0.20688885 -0.015170875 -0.085377574 0.24220149 -0.3251903 -0.004715854 0.12926158
00000000: e99e 4a3e efa2 e2bd de2f 32be 9abf babd
00000010: 7e00 a93c 12ad 39be d9c7 07bd 3080 053e
00000020: 502f 443e 4ef6 0d3d af3a c6be e6dc 77be
00000030: 0235 0abe b6a4 043e 45d9 c03d 2fd0 13be
00000040: 829b 47be 52bd aebd e05f edbd 8364 a23e
00000050: ca27 bdbe cb11 5d3e 0c2c 7bbd 11ac 8a3e
00000060: 5d9d b83e 8169 d5bd 28b2 e7bd 0814 99be
00000070: 9e52 303d ee79 1fbe 1da6 efbd 86b0 88be
00000080: 984f a63e 7429 a03d f63f 24be 4865 c03e
00000090: db69 96be e0d6 813c 5a0b c6bb 1c4b ed3d
000000a0: 5126 9f3b 68ff 8a3e 5f46 3dbe 83e5 89be
000000b0: 1135 92be 5ea2 c7be 2bdf b33d bf3e 623e
000000c0: 7a96 73be 0b71 11be 75ad 09bd 3001 333e
000000d0: ba84 593d b27d 8b3e 6b9f ebbd 8c20 3ebd
000000e0: 681f 41be acda 533e 438f 78bc 70da aebd
000000f0: ab03 783e 587f a6be 7387 9abb 265d 043e

critic.4.weight f4 [1, 64]
0.27203533 -0.11269086 0.11413351 -0.118443504 0.029841844 0.061285626 0.16826521 0.0018357596
-0.009526639 0.10056884 0.13484448 -0.007226106 -0.052739874 0.14541653 -0.010829075 -0.17508368
-0.19963384 0.13978119 -0.24098527 -0.1838481 0.12804104 -0.16803074 -0.25688106 0.0021544204
-0.15411137 0.007071418 0.0011896287 0.1577813 0.004658696 0.09178321 -0.17207113 0.15193003
-0.101912454 0.048944134 0.09827248 -0.17552845 -0.00042032584 0.0047913967 0.039913546 -0.017617485
0.011149103 -0.05175031 0.11885977 0.13334069 0.11787933 0.20010804 -0.10403959 0.0015279546
0.018608123 -0.012019154 0.09263573 0.00871449 -0.013085339 -0.18156931 0.012303714 -0.01269596
-0.0074161394 0.24161041 -0.06980905 -0.2217574 0.0015193989 0.111492306 -0.20738769 -0.02738679
00000000: 3748 8b3e 77ca e6bd d4be e93d 8292 f2bd
00000010: e276 f43c a306 7b3d b74d 2c3e df9d f03a
00000020: 9f15 1cbc 09f7 cd3d ac14 0a3e f8c8 ecbb
00000030: c405 58bd 12e8 143e 6f6c 31bc 2349 33be
00000040: d06c 4cbe cd22 0f3e d8c4 76be ad42 3cbe
00000050: 311d 033e 4010 2cbe ea85 83be 2d31 0d3b
00000060: 5fcf 1dbe 5bb7 e73b 51ed 9b3a 6c91 213e
00000070: f9a7 983b d6f8 bb3d 6a33 30be 8c93 1b3e
00000080: 7ab7 d0bd a579 483d 1543 c93d bbbd 33be
00000090: 2e5f dcb9 2601 9d3b 637c 233d 8b52 90bc
000000a0: baaa 363c 22f8 53bd c06c f33d 768a 083e
000000b0: b86a f13d 1fe9 4c3e b512 d5bd a645 c83a
000000c0: 1070 983c fceb 44bc cdb7 bd3d 38c7 0e3c
000000d0: e463 56bc 4eed 39be 8495 493c b702 50bc
000000e0: 1603 f3bb b868 773e 0cf8 8ebd 5f14 63be
000000f0: 9126 c73a 1456 e43d 705d 54be 435a e0bc
